runfile('/home/nuvilabs/Desktop/sudoku_solver/train.py', wdir='/home/nuvilabs/Desktop/sudoku_solver')
Reloaded modules: model, data_preprocess, utils, accuracy, trainer, validater
SudokuCNN(
  (conv_layers): Sequential(
    (0): Conv2dSame(
      (net): Sequential(
        (0): ReflectionPad2d((1, 1, 1, 1))
        (1): Conv2d(1, 512, kernel_size=(3, 3), stride=(1, 1))
        (2): BatchNorm2d(512, eps=1e-05, momentum=0.1, affine=True, track_running_stats=True)
        (3): ReLU(inplace=True)
      )
    )
    (1): Conv2dSame(
      (net): Sequential(
        (0): ReflectionPad2d((1, 1, 1, 1))
        (1): Conv2d(512, 512, kernel_size=(3, 3), stride=(1, 1))
        (2): BatchNorm2d(512, eps=1e-05, momentum=0.1, affine=True, track_running_stats=True)
        (3): ReLU(inplace=True)
      )
    )
    (2): Conv2dSame(
      (net): Sequential(
        (0): ReflectionPad2d((1, 1, 1, 1))
        (1): Conv2d(512, 512, kernel_size=(3, 3), stride=(1, 1))
        (2): BatchNorm2d(512, eps=1e-05, momentum=0.1, affine=True, track_running_stats=True)
        (3): ReLU(inplace=True)
      )
    )
    (3): Conv2dSame(
      (net): Sequential(
        (0): ReflectionPad2d((1, 1, 1, 1))
        (1): Conv2d(512, 512, kernel_size=(3, 3), stride=(1, 1))
        (2): BatchNorm2d(512, eps=1e-05, momentum=0.1, affine=True, track_running_stats=True)
        (3): ReLU(inplace=True)
      )
    )
    (4): Conv2dSame(
      (net): Sequential(
        (0): ReflectionPad2d((1, 1, 1, 1))
        (1): Conv2d(512, 512, kernel_size=(3, 3), stride=(1, 1))
        (2): BatchNorm2d(512, eps=1e-05, momentum=0.1, affine=True, track_running_stats=True)
        (3): ReLU(inplace=True)
      )
    )
    (5): Conv2dSame(
      (net): Sequential(
        (0): ReflectionPad2d((1, 1, 1, 1))
        (1): Conv2d(512, 512, kernel_size=(3, 3), stride=(1, 1))
        (2): BatchNorm2d(512, eps=1e-05, momentum=0.1, affine=True, track_running_stats=True)
        (3): ReLU(inplace=True)
      )
    )
    (6): Conv2dSame(
      (net): Sequential(
        (0): ReflectionPad2d((1, 1, 1, 1))
        (1): Conv2d(512, 512, kernel_size=(3, 3), stride=(1, 1))
        (2): BatchNorm2d(512, eps=1e-05, momentum=0.1, affine=True, track_running_stats=True)
        (3): ReLU(inplace=True)
      )
    )
    (7): Conv2dSame(
      (net): Sequential(
        (0): ReflectionPad2d((1, 1, 1, 1))
        (1): Conv2d(512, 512, kernel_size=(3, 3), stride=(1, 1))
        (2): BatchNorm2d(512, eps=1e-05, momentum=0.1, affine=True, track_running_stats=True)
        (3): ReLU(inplace=True)
      )
    )
    (8): Conv2dSame(
      (net): Sequential(
        (0): ReflectionPad2d((1, 1, 1, 1))
        (1): Conv2d(512, 512, kernel_size=(3, 3), stride=(1, 1))
        (2): BatchNorm2d(512, eps=1e-05, momentum=0.1, affine=True, track_running_stats=True)
        (3): ReLU(inplace=True)
      )
    )
    (9): Conv2dSame(
      (net): Sequential(
        (0): ReflectionPad2d((1, 1, 1, 1))
        (1): Conv2d(512, 512, kernel_size=(3, 3), stride=(1, 1))
        (2): BatchNorm2d(512, eps=1e-05, momentum=0.1, affine=True, track_running_stats=True)
        (3): ReLU(inplace=True)
      )
    )
    (10): Conv2dSame(
      (net): Sequential(
        (0): ReflectionPad2d((1, 1, 1, 1))
        (1): Conv2d(512, 512, kernel_size=(3, 3), stride=(1, 1))
        (2): BatchNorm2d(512, eps=1e-05, momentum=0.1, affine=True, track_running_stats=True)
        (3): ReLU(inplace=True)
      )
    )
    (11): Conv2dSame(
      (net): Sequential(
        (0): ReflectionPad2d((1, 1, 1, 1))
        (1): Conv2d(512, 512, kernel_size=(3, 3), stride=(1, 1))
        (2): BatchNorm2d(512, eps=1e-05, momentum=0.1, affine=True, track_running_stats=True)
        (3): ReLU(inplace=True)
      )
    )
    (12): Conv2dSame(
      (net): Sequential(
        (0): ReflectionPad2d((1, 1, 1, 1))
        (1): Conv2d(512, 512, kernel_size=(3, 3), stride=(1, 1))
        (2): BatchNorm2d(512, eps=1e-05, momentum=0.1, affine=True, track_running_stats=True)
        (3): ReLU(inplace=True)
      )
    )
    (13): Conv2dSame(
      (net): Sequential(
        (0): ReflectionPad2d((1, 1, 1, 1))
        (1): Conv2d(512, 512, kernel_size=(3, 3), stride=(1, 1))
        (2): BatchNorm2d(512, eps=1e-05, momentum=0.1, affine=True, track_running_stats=True)
        (3): ReLU(inplace=True)
      )
    )
    (14): Conv2dSame(
      (net): Sequential(
        (0): ReflectionPad2d((1, 1, 1, 1))
        (1): Conv2d(512, 512, kernel_size=(3, 3), stride=(1, 1))
        (2): BatchNorm2d(512, eps=1e-05, momentum=0.1, affine=True, track_running_stats=True)
        (3): ReLU(inplace=True)
      )
    )
  )
  (last_conv): Conv2d(512, 9, kernel_size=(1, 1), stride=(1, 1))
)
  1%|          | 7114/1000000 [00:00<00:13, 71136.00it/s]Loading Sudokus
100%|██████████| 1000000/1000000 [00:13<00:00, 72417.22it/s]
  0%|          | 0/1000000 [00:00<?, ?it/s]Loading Solutions
100%|██████████| 1000000/1000000 [00:13<00:00, 73394.69it/s]
=====Training=======
cuda:0
Epoch: 1, Batch: 1, Avg. Loss: 0.009881311655044555
Epoch: 1, Batch: 201, Avg. Loss: 1.8462487958371638
…
