SudokuCNN(
  (conv_layers): Sequential(
    (0): Conv2dSame(
      (net): Sequential(
        (0): ReflectionPad2d((1, 1, 1, 1))
        (1): Conv2d(1, 512, kernel_size=(3, 3), stride=(1, 1))
        (2): BatchNorm2d(512, eps=1e-05, momentum=0.1, affine=True, track_running_stats=True)
        (3): ReLU(inplace=True)
      )
    )
    (1): Conv2dSame(
      (net): Sequential(
        (0): ReflectionPad2d((1, 1, 1, 1))
        (1): Conv2d(512, 512, kernel_size=(3, 3), stride=(1, 1))
        (2): BatchNorm2d(512, eps=1e-05, momentum=0.1, affine=True, track_running_stats=True)
        (3): ReLU(inplace=True)
      )
    )
    (2): Conv2dSame(
      (net): Sequential(
        (0): ReflectionPad2d((1, 1, 1, 1))
        (1): Conv2d(512, 512, kernel_size=(3, 3), stride=(1, 1))
        (2): BatchNorm2d(512, eps=1e-05, momentum=0.1, affine=True, track_running_stats=True)
        (3): ReLU(inplace=True)
      )
    )
    (3): Conv2dSame(
      (net): Sequential(
        (0): ReflectionPad2d((1, 1, 1, 1))
        (1): Conv2d(512, 512, kernel_size=(3, 3), stride=(1, 1))
        (2): BatchNorm2d(512, eps=1e-05, momentum=0.1, affine=True, track_running_stats=True)
        (3): ReLU(inplace=True)
      )
    )
    (4): Conv2dSame(
      (net): Sequential(
        (0): ReflectionPad2d((1, 1, 1, 1))
        (1): Conv2d(512, 512, kernel_size=(3, 3), stride=(1, 1))
        (2): BatchNorm2d(512, eps=1e-05, momentum=0.1, affine=True, track_running_stats=True)
        (3): ReLU(inplace=True)
      )
    )
    (5): Conv2dSame(
      (net): Sequential(
        (0): ReflectionPad2d((1, 1, 1, 1))
        (1): Conv2d(512, 512, kernel_size=(3, 3), stride=(1, 1))
        (2): BatchNorm2d(512, eps=1e-05, momentum=0.1, affine=True, track_running_stats=True)
        (3): ReLU(inplace=True)
      )
    )
    (6): Conv2dSame(
      (net): Sequential(
        (0): ReflectionPad2d((1, 1, 1, 1))
        (1): Conv2d(512, 512, kernel_size=(3, 3), stride=(1, 1))
        (2): BatchNorm2d(512, eps=1e-05, momentum=0.1, affine=True, track_running_stats=True)
        (3): ReLU(inplace=True)
      )
    )
    (7): Conv2dSame(
      (net): Sequential(
        (0): ReflectionPad2d((1, 1, 1, 1))
        (1): Conv2d(512, 512, kernel_size=(3, 3), stride=(1, 1))
        (2): BatchNorm2d(512, eps=1e-05, momentum=0.1, affine=True, track_running_stats=True)
        (3): ReLU(inplace=True)
      )
    )
    (8): Conv2dSame(
      (net): Sequential(
        (0): ReflectionPad2d((1, 1, 1, 1))
        (1): Conv2d(512, 512, kernel_size=(3, 3), stride=(1, 1))
        (2): BatchNorm2d(512, eps=1e-05, momentum=0.1, affine=True, track_running_stats=True)
        (3): ReLU(inplace=True)
      )
    )
    (9): Conv2dSame(
      (net): Sequential(
        (0): ReflectionPad2d((1, 1, 1, 1))
        (1): Conv2d(512, 512, kernel_size=(3, 3), stride=(1, 1))
        (2): BatchNorm2d(512, eps=1e-05, momentum=0.1, affine=True, track_running_stats=True)
        (3): ReLU(inplace=True)
      )
    )
    (10): Conv2dSame(
      (net): Sequential(
        (0): ReflectionPad2d((1, 1, 1, 1))
        (1): Conv2d(512, 512, kernel_size=(3, 3), stride=(1, 1))
        (2): BatchNorm2d(512, eps=1e-05, momentum=0.1, affine=True, track_running_stats=True)
        (3): ReLU(inplace=True)
      )
    )
    (11): Conv2dSame(
      (net): Sequential(
        (0): ReflectionPad2d((1, 1, 1, 1))
        (1): Conv2d(512, 512, kernel_size=(3, 3), stride=(1, 1))
        (2): BatchNorm2d(512, eps=1e-05, momentum=0.1, affine=True, track_running_stats=True)
        (3): ReLU(inplace=True)
      )
    )
    (12): Conv2dSame(
      (net): Sequential(
        (0): ReflectionPad2d((1, 1, 1, 1))
        (1): Conv2d(512, 512, kernel_size=(3, 3), stride=(1, 1))
        (2): BatchNorm2d(512, eps=1e-05, momentum=0.1, affine=True, track_running_stats=True)
        (3): ReLU(inplace=True)
      )
    )
    (13): Conv2dSame(
      (net): Sequential(
        (0): ReflectionPad2d((1, 1, 1, 1))
        (1): Conv2d(512, 512, kernel_size=(3, 3), stride=(1, 1))
        (2): BatchNorm2d(512, eps=1e-05, momentum=0.1, affine=True, track_running_stats=True)
        (3): ReLU(inplace=True)
      )
    )
    (14): Conv2dSame(
      (net): Sequential(
        (0): ReflectionPad2d((1, 1, 1, 1))
        (1): Conv2d(512, 512, kernel_size=(3, 3), stride=(1, 1))
        (2): BatchNorm2d(512, eps=1e-05, momentum=0.1, affine=True, track_running_stats=True)
        (3): ReLU(inplace=True)
      )
    )
  )
  (last_conv): Conv2d(512, 9, kernel_size=(1, 1), stride=(1, 1))
)
  1%|          | 6965/1000000 [00:00<00:14, 69647.58it/s]Loading Sudokus
100%|██████████| 1000000/1000000 [00:14<00:00, 70382.72it/s]
  0%|          | 0/1000000 [00:00<?, ?it/s]Loading Solutions
100%|██████████| 1000000/1000000 [00:13<00:00, 71958.37it/s]
cuda:0
 Accuracy:940/1024
 Accuracy:1001/1088
 Accuracy:1059/1152
 Accuracy:1117/1216
 Accuracy:1175/1280
…
